[
  {
    "id" : "caafce5e-b19f-4ec1-89ef-ea78976f2e74",
    "prId" : 44851,
    "prUrl" : "https://github.com/tensorflow/tensorflow/pull/44851#pullrequestreview-533921948",
    "prSource" : "GitHub",
    "comments" : [
      {
        "id" : "38e3b6a3-27ae-4b7f-8e73-2b0416baa50c",
        "parentId" : null,
        "authorId" : "b534dd2f-ff29-4848-b22b-6d156debdac0",
        "body" : "Nit: For most of these, I am fine with these simple CHECK existence tests, but there are non-trivial calculations that happen in these quantized conversions. I'd feel better with some additional checks on the actual attribute values. Here and elsewhere. I am fine with this as a TODO (I know these were all generated by a tool that did correctness tests, and we may want to extend the tool vs hand editing).",
        "createdAt" : "2020-11-17T21:27:53Z",
        "updatedAt" : "2020-11-20T16:22:46Z",
        "lastEditedBy" : "b534dd2f-ff29-4848-b22b-6d156debdac0",
        "tags" : [
        ]
      },
      {
        "id" : "988bde08-3026-432f-9624-d906d4d83d80",
        "parentId" : "38e3b6a3-27ae-4b7f-8e73-2b0416baa50c",
        "authorId" : "ec3eb1a7-1d26-451a-afe0-c7fde96c3ff9",
        "body" : "Will add a TODO covering all of the \"fakequant\" tests.  These all need some other TLC because the random double precision numbers are hard to look at (and create awfully long lines).",
        "createdAt" : "2020-11-18T22:09:20Z",
        "updatedAt" : "2020-11-20T16:22:47Z",
        "lastEditedBy" : "ec3eb1a7-1d26-451a-afe0-c7fde96c3ff9",
        "tags" : [
        ]
      }
    ],
    "commit" : "f2631ad5eb993325fcb239357f7be18f8e56a8b5",
    "line" : 48,
    "diffHunk" : "@@ -1,1 +46,50 @@// CHECK: tosa.conv2d\n// CHECK: tosa.rescale\nfunc @test_fakequant_conv2d(%arg0: tensor<1x32x32x8x!quant.uniform<i8:f32, 0.015684768557548523>>) -> tensor<1x32x32x16x!quant.uniform<i8:f32, 0.078431375324726104>> {\n  %0 = \"tfl.pseudo_qconst\"() {qtype = tensor<16x1x1x8x!quant.uniform<i8<-127:127>:f32:0, {… >>, value = dense<\"…\"> : tensor<16x1x1x8xi8>} : () -> tensor<16x1x1x8x!quant.uniform<i8<-127:127>:f32:0,  {… >>\n  %1 = \"tfl.pseudo_qconst\"() {qtype = tensor<16x!quant.uniform<i32:f32:0, {… >>, value = dense<0> : tensor<16xi32>} : () -> tensor<16x!quant.uniform<i32:f32:0,  {… >>"
  },
  {
    "id" : "782b3c58-9e3f-4208-a7d2-17a7cdb654b2",
    "prId" : 44851,
    "prUrl" : "https://github.com/tensorflow/tensorflow/pull/44851#pullrequestreview-533922017",
    "prSource" : "GitHub",
    "comments" : [
      {
        "id" : "cd7e67d7-4d33-4886-92ac-12d430b9b0e9",
        "parentId" : null,
        "authorId" : "b534dd2f-ff29-4848-b22b-6d156debdac0",
        "body" : "Again: non-trivial. Would prefer a bit more specificity in the value flows for key parts. A TODO is fine.",
        "createdAt" : "2020-11-17T21:29:12Z",
        "updatedAt" : "2020-11-20T16:22:46Z",
        "lastEditedBy" : "b534dd2f-ff29-4848-b22b-6d156debdac0",
        "tags" : [
        ]
      },
      {
        "id" : "b3cd80ab-09a4-4040-8576-73c51358cf49",
        "parentId" : "cd7e67d7-4d33-4886-92ac-12d430b9b0e9",
        "authorId" : "ec3eb1a7-1d26-451a-afe0-c7fde96c3ff9",
        "body" : "This test and the corresponding one in TF were too complicated to begin with.  Our original unit test for this operator contains some additional reduce and concat operators to get the result back down to a single tensor.  The next patch will have those operators manually stripped out and both Split tests will look much cleaner.",
        "createdAt" : "2020-11-18T22:09:27Z",
        "updatedAt" : "2020-11-20T16:22:47Z",
        "lastEditedBy" : "ec3eb1a7-1d26-451a-afe0-c7fde96c3ff9",
        "tags" : [
        ]
      }
    ],
    "commit" : "f2631ad5eb993325fcb239357f7be18f8e56a8b5",
    "line" : 656,
    "diffHunk" : "@@ -1,1 +654,658 @@\n// CHECK-LABEL: test_split\n// CHECK: tosa.slice\n// CHECK: tosa.slice\n// CHECK: tosa.slice"
  },
  {
    "id" : "83515b8f-c773-40cb-bcaf-e35762656eeb",
    "prId" : 44851,
    "prUrl" : "https://github.com/tensorflow/tensorflow/pull/44851#pullrequestreview-530421967",
    "prSource" : "GitHub",
    "comments" : [
      {
        "id" : "a09c2f68-6164-4ac6-8b52-a32728ec2185",
        "parentId" : null,
        "authorId" : "b534dd2f-ff29-4848-b22b-6d156debdac0",
        "body" : "Non-trivial TODO again.",
        "createdAt" : "2020-11-17T21:29:41Z",
        "updatedAt" : "2020-11-20T16:22:46Z",
        "lastEditedBy" : "b534dd2f-ff29-4848-b22b-6d156debdac0",
        "tags" : [
        ]
      }
    ],
    "commit" : "f2631ad5eb993325fcb239357f7be18f8e56a8b5",
    "line" : 754,
    "diffHunk" : "@@ -1,1 +752,756 @@// CHECK: tosa.reshape\n// CHECK: tosa.mul\nfunc @test_fakequant_with_min_max_args(%arg0: tensor<13x21x3xf32>) -> tensor<13x21x3xf32> {\n  %0 = \"tfl.quantize\"(%arg0)  {qtype = tensor<13x21x3x!quant.uniform<u16:f32, 6.1036087586785687E-5:32768>>}  : (tensor<13x21x3xf32>) -> tensor<13x21x3x!quant.uniform<u16:f32, 6.1036087586785687E-5:32768>>\n  %1 = \"tfl.dequantize\"(%0) : (tensor<13x21x3x!quant.uniform<u16:f32, 6.1036087586785687E-5:32768>>) -> tensor<13x21x3xf32>"
  },
  {
    "id" : "3d498782-367b-4732-ab02-5ceeac0db083",
    "prId" : 44851,
    "prUrl" : "https://github.com/tensorflow/tensorflow/pull/44851#pullrequestreview-530421967",
    "prSource" : "GitHub",
    "comments" : [
      {
        "id" : "be30d449-330d-47f4-9a74-2ead6a7ffb55",
        "parentId" : null,
        "authorId" : "b534dd2f-ff29-4848-b22b-6d156debdac0",
        "body" : "Non-trivial TODO",
        "createdAt" : "2020-11-17T21:30:14Z",
        "updatedAt" : "2020-11-20T16:22:46Z",
        "lastEditedBy" : "b534dd2f-ff29-4848-b22b-6d156debdac0",
        "tags" : [
        ]
      }
    ],
    "commit" : "f2631ad5eb993325fcb239357f7be18f8e56a8b5",
    "line" : 851,
    "diffHunk" : "@@ -1,1 +849,853 @@// CHECK: tosa.rescale\nfunc @test_fakequant_softmax(%arg0: tensor<13x21x3x!quant.uniform<i8:f32, 0.0156164625659585>>) -> tensor<13x21x3x!quant.uniform<i8:f32, 3.906250e-03:-128>> {\n  %0 = \"tfl.softmax\"(%arg0)  {beta = 1.000000e+00 : f32}  : (tensor<13x21x3x!quant.uniform<i8:f32, 0.0156164625659585>>) -> tensor<13x21x3x!quant.uniform<i8:f32, 3.906250e-03:-128>>\n  return %0 : tensor<13x21x3x!quant.uniform<i8:f32, 3.906250e-03:-128>>\n}"
  }
]